GPU:  [PhysicalDevice(name='/physical_device:GPU:0', device_type='GPU')]
Listening on port 9000
Model: "model"
_________________________________________________________________
 Layer (type)                Output Shape              Param #   
=================================================================
 input_1 (InputLayer)        [(None, 28, 28)]          0         
                                                                 
 reshape (Reshape)           (None, 28, 28, 1)         0         
                                                                 
 conv2d (Conv2D)             (None, 26, 26, 16)        160       
                                                                 
 conv2d_1 (Conv2D)           (None, 24, 24, 16)        2320      
                                                                 
 flatten (Flatten)           (None, 9216)              0         
                                                                 
 dense (Dense)               (None, 128)               1179776   
                                                                 
 dense_1 (Dense)             (None, 10)                1290      
                                                                 
=================================================================
Total params: 1,183,546
Trainable params: 1,183,546
Non-trainable params: 0
_________________________________________________________________
Epoch 1/3
2022-11-24 13:54:49.488013: E tensorflow/stream_executor/cuda/cuda_dnn.cc:389] Could not create cudnn handle: CUDNN_STATUS_INTERNAL_ERROR
…
